model_epoch_200.pt (torch, 535625 bytes, 6 tensors)

weight f4 [200, 452]
00000000: 9cb5 7fbe 23ac dbbd 2868 4ebd de13 80be
00000010: 9b38 5e3d 4cfd 7f3d 3212 52bd c020 c6be
00000020: d685 b6be 7141 bbbc 2ec1 c83d bb34 c9bd
00000030: df1d ae3e 7468 7bbb b9ea 393d d0fa 6f3e
00000040: 9a26 223c d9a4 b2be f629 8f3d f845 bdbc
00000050: e107 c83c bf59 ffbd 0905 703e 3c24 1ebf
00000060: 2a34 433e ff5a eb3c 3a1a 8cbc ea1a 08bc
00000070: 3026 6a3d 39d7 aabe e047 7cbe f2d4 46bd
00000080: 1c9d 393e 5568 69bc 020a 01be 067b c53c
00000090: 834a 323e 6e97 8e3d f80f c03e 9e9d 733e
000000a0: 3ec6 393e 3186 9ebe fb88 993e 432c 9cbb
000000b0: 242e 6fbd 22f0 2a3d 6c2c 49be 9d86 723e
000000c0: 9fb6 8bbe 30fb 0a3d b56d 24bc 54e6 133f
000000d0: fc16 a0bd 0dd2 58bd f9c5 f1be 77c0 283c
000000e0: 6008 29be e9bc c93e a66f d63d 23c9 d6ba
000000f0: 3f44 233d e0fb 24bd 07cb 59be eb61 4b3e
00000100: 55f4 153e 8be1 a03e 6023 84be 3ffd 09bd
00000110: 6a6d 183e 8350 9eb9 5360 cdbc 3023 a03e
00000120: 0e9f 993e 3ce4 7b3e 6f2c 323e 281e 85bc
00000130: 76c5 24bd de92 5ebe d036 9f3c 4dbd 06bd
00000140: 3385 503d 5345 1f3f c6ab ae3e 7b64 783e
00000150: 1743 3abd 1ccd b33c 48a1 bebd 0f00 013f
00000160: 13fe 9bbe 617f 0cbf d60e 043e 6896 8ebc
00000170: 3351 1abe e583 ffbe e2a2 28bf 08cf dbbe
00000180: b3ed 4a3c b6db f8bc a1cb 3fbe d1a8 39bc
00000190: 4f0e 3abd 4d75 30bd 5df8 dd3e 82d5 f0bc
000001a0: d0ea 75bd d3bf 2bbd 0c5a f83e dadc 1d3d
000001b0: c12c 033d 6072 0c3f a646 683e 4bc9 a43e
000001c0: fb09 8dbd 7922 3bbd 6b69 2d3e d0ff dabe
000001d0: b83f 4f3e 8ad7 ddbe 0e57 21bf a0be b13d
000001e0: 0941 9bbb b5d7 2b3c fe57 04bd b316 94bd
000001f0: 87b7 153f 9cac 133e 58d0 eebc a5b5 6fbc
00000200: 0bdc 32bd d505 88bc 7790 103d c3cb 103e
00000210: dc29 f33d 117a 38be 7fbb c03d 043c a6bc
00000220: 641f 87be 1b62 53be 8b4a 59bd 1571 b13c
00000230: 0055 e93b 43a3 73be c4f7 d13e f9eb 9ebe
00000240: d64e d0be ab57 d13d b404 b8be b36c c8be
00000250: 0e10 c6bb 0a7f b1be f29f d4be de33 9e3c
00000260: f75f 7a3e ef6e aabe 1aed dbbd 2833 8cbe
00000270: b643 153d c01e de3b c9c9 333d 47f7 ce3e
00000280: 487a 2d3d aff9 053f a7ee a3be a78e 2f3d
00000290: 0122 513e 39fb c4be f1ee a03e dab6 2fbd
000002a0: 0d09 dc3a 6a49 e6bc 6cbf 9c3d 8650 0abc
000002b0: 50c4 f23c 1394 ae3c 1705 a83c fad9 9d3e
000002c0: 22b1 d93c 687e 3abd 14bc 393c 3c35 b23e
000002d0: 9128 8ebe d394 c1bc 3561 2abd e2e7 0dbe
000002e0: c86d 913a 8adc 9f3e 53b0 b23e d380 d5ba
000002f0: 8a9a 9cbc db5c 1a3d 58a8 423f f37f ec3c
00000300: 4b58 dabc 163f 043f b4bf e23d 6e04 283e
00000310: f095 08bb daf8 78bc d3a9 df3b 1b44 08bf
00000320: 9fe1 b4be ab65 8d3c ba96 ccbd d6b2 a6be
00000330: dcc8 98bc 7e71 023d 4c14 29be bf84 1ebd
00000340: 4956 6b3e 835c 75be c555 eabc 8567 fd3e
00000350: 2f43 273f 7dd4 8d3b e2b1 903c 9e6a 9dbd
00000360: d772 38bd d5f8 95bc e6ee 28bd 3dcf ebbc
00000370: fdb9 ef3c 872c 15bd 4479 9bbe a206 edbe
00000380: 2bd0 ab3e a583 0bbe aa5b 023e 7878 9cbe
00000390: 9964 2ebe 1841 4cbe 8bc4 b63e 0ca7 d93e
000003a0: 44cc 803e ae53 303d 935a 34bd 5f2e d13c
000003b0: fdc5 2a3d 2e09 3f3c eaa9 33be 7c79 193d
000003c0: d776 663c 23b5 df3c 1bea f23c 13c4 2e3d
000003d0: 8d2d aabd c9ed 38bf 88e0 27ba e7d1 06be
000003e0: 9954 d03e a583 173f 6d90 a5bd ced2 a53c
000003f0: 3b2d d53d 80c8 babe 0afd c43e 8ea6 ef3d
-0.24971622 -0.10726192 -0.0503923 -0.25015157 0.054253202 0.062497422 -0.051286884 -0.3869686
-0.35648984 -0.022858353 0.09802471 -0.09824511 0.34007165 -0.003836182 0.045389865 0.23435521
0.009896899 -0.34891394 0.06990425 -0.023104653 0.02441782 -0.124682896 0.23439421 -0.6177404
0.19062868 0.028729914 -0.01710235 -0.008307198 0.057165325 -0.33367327 -0.24636793 -0.048542924
0.18126339 -0.014246066 -0.12601474 0.024106514 0.17411236 0.06962477 0.37512183 0.23790595
0.1814203 -0.30961755 0.2998732 -0.0047660186 -0.058393613 0.041732915 -0.19645852 0.23684163
-0.27287766 0.033930957 -0.010035922 0.5777333 -0.07816884 -0.052934695 -0.47221354 0.010299793
-0.16507101 0.3940194 0.10470514 -0.0016386848 0.039860006 -0.04027927 -0.21268855 0.19861571
0.14643987 0.31422076 -0.2580824 -0.03368878 0.14885488 -0.00030196094 -0.025070345 0.31276846
0.30004162 0.24598783 0.17399763 -0.016249731 -0.040227376 -0.21735713 0.019435316 -0.032895375
0.05090828 0.62215155 0.34115428 0.2425708 -0.045474138 0.02194839 -0.09308106 0.50390714
-0.3046728 -0.54881865 0.12896284 -0.017405704 -0.15070038 -0.49905315 -0.6587354 -0.4293139
0.0123857735 -0.030378204 -0.18730022 -0.011331753 -0.045423802 -0.043080617 0.4335355 -0.029398683
-0.060038388 -0.041930985 0.485062 0.0385407 0.032025103 0.5486202 0.226832 0.32184824
-0.06886669 -0.045687173 0.16934745 -0.42773294 0.2023915 -0.43328506 -0.6302346 0.08678937
-0.0047379774 0.01048844 -0.03231048 -0.07230892 0.58483166 0.14421314 -0.02915208 -0.01463071
-0.04366688 -0.016604343 0.035294022 0.14140229 0.118732184 -0.18015315 0.09410762 -0.02029229
-0.26391137 -0.20642893 -0.053049605 0.021660367 0.0071207285 -0.23792748 0.41009343 -0.31039408
-0.40685147 0.102217995 -0.35941088 -0.3914543 -0.0060443943 -0.34667236 -0.4152828 0.019311842
0.2445067 -0.3328776 -0.10738583 -0.2738278 0.036441527 0.006778568 0.04389361 0.40423033
0.042352945 0.5233411 -0.32018015 0.042860653 0.20423128 -0.38472918 0.31432298 -0.04289899
0.0016787365 -0.028111178 0.07653698 -0.00844205 0.029634625 0.021310842 0.02051024 0.30830365
0.026573721 -0.045530707 0.011336345 0.3480624 -0.27765325 -0.023630535 -0.04159661 -0.13857988
0.001109534 0.31222945 0.3490015 -0.0016289003 -0.019116659 0.03768621 0.7603812 0.028869605
-0.02665343 0.5165876 0.11071721 0.1640794 -0.0020841323 -0.01519605 0.0068256645 -0.5322892
-0.35328385 0.017260393 -0.09989686 -0.32558316 -0.018650465 0.031846516 -0.16511649 -0.038700815
0.22982134 -0.23961072 -0.028605351 0.49493042 0.6533689 0.004328309 0.017662946 -0.07686351
-0.045031395 -0.018307129 -0.041243456 -0.028785342 0.02926349 -0.036419418 -0.30365956 -0.46294123
0.33557257 -0.13624437 0.1273028 -0.3056066 -0.17030562 -0.19946706 0.35696825 0.4251026
0.25155842 0.043048553 -0.04403169 0.025534807 0.041692723 0.011659903 -0.17545286 0.037469372
0.01406642 0.027308052 0.029652646 0.04266746 -0.08309469 -0.7223783 -0.0006404002 -0.13166009
0.40689543 0.5918525 -0.08084188 0.020242121 0.10409018 -0.36481094 0.38474303 0.1170169

bias f4 [200]
00000000: 70f9 583d fe8b 213d 6465 123e a799 d23c
00000010: 4b11 9b3d 8fc4 993e 22b4 c03e d931 a6be
00000020: c98a a03c 7e30 44be 8d06 08be c877 a73d
00000030: 7dea 683e 9fec c7be f4fe 1e3e 1040 4b3d
00000040: 7757 1abe da0e 44be c498 b63e 743c 393e
00000050: 55ea 90bd 7297 ca3d 3840 29bd 9ce0 d83c
00000060: 498c 853c 8507 cdbe 64a2 97bd c52f a93d
00000070: a226 22be 2eac abbe ce3d b43e 9008 e03c
00000080: afc3 f13d e22c 43be a339 b6be 9bba d0be
00000090: f5b9 a43d 83d1 2dbe a982 c53e 0a09 e03b
000000a0: 2178 23be a865 423d 8d0a 833e 4713 8ebe
000000b0: b204 073e da61 b5bd 064a ce3e 4f22 16be
000000c0: e4e7 8fbe 54fb 2bbe 5bcf c23d e140 5c3e
000000d0: 84d2 e13d ef9f 773d 0a62 d13d b33a d5be
000000e0: 24d0 953c 8586 d23d 737a 18bf 57b4 7cbe
000000f0: 43d3 85be 04da fd3e 9d5a bc3e 78a5 8dbd
00000100: 466c a0bc 8351 90be 3413 383e ac12 59be
00000110: 1857 8cbe 1d39 e1bc 75af 3b3e b6ec cabd
00000120: d4a3 433f 8168 1e3e 121f 79be 080d 833e
00000130: 6cf6 8f3d a074 023e e18e 7c3d 8635 093e
00000140: c9ab a53e 205b d7bd d818 903e 9ce2 80be
00000150: 61db 123f eeb2 8ebc a854 01bc 9615 98bd
00000160: 989a ba3e 99bf 88be ea99 76be 3e0b a4bd
00000170: 4499 3cbf 00b5 04be 343d c5bd 8251 29be
00000180: 79f5 6c3e fa8a 60be 6268 eabd e4b2 613e
00000190: 6a30 c43c d496 fabd 9f40 103e b159 99be
000001a0: bd4c 733e 4c77 043f 4a82 443e 9f41 ca3e
000001b0: 8565 8abe 203e 5c3e aee2 823d 0287 723c
000001c0: 4b74 15be 8842 333e 3e5d 3abe fbd7 983e
000001d0: 7726 f13d 11ab 7abe 55b9 f13e f893 ee3d
000001e0: 6769 a8be 51c8 263e 9cd9 873c 3a6a 57be
000001f0: 38c9 753e feab 96be 6c42 2abe c56e 1ebe
00000200: 4084 9c3e d69f 64be 5cf5 69bd e8c5 4abe
00000210: 1513 58be 60d5 5b3e 45e7 1a3c 94c9 bdbd
00000220: 44e7 6d3d cedc 02be 7cbf 8c3e 3f1b 81bd
00000230: 52fc e43c a4a6 4abe 2132 2dbf f78b 933d
00000240: 730f 983e 2aac 76be 62f1 483d 93d4 f23e
00000250: b7e8 92be 89c4 c13e 1367 a6bd 5b9c 90be
00000260: ea86 4f3e b556 063e cb77 ecbd f83f 643e
00000270: 60c8 c53e aa29 4f3e ca2a 9dbe bb14 0bbe
00000280: 5e90 6fbe f7b4 bdbe ca53 99bd 05eb efbe
00000290: c110 5ebd f74b f93a 8600 a6be d363 b8be
000002a0: e048 98be 8649 0dbe 478f 9a3e 6d1c df3d
000002b0: 0e6a 293f 02ee 0cbe 2e6e 003e fcd1 babd
000002c0: 8119 f5bc da46 12bf f30e b7be 1b7d 8fbc
000002d0: a953 823d cc7a 793d 6666 ff3d 9279 a6be
000002e0: ffed dd3e b784 96bd d513 e03e ddf4 81be
000002f0: 261f a13e 7c7d 25be 50e7 bebd 6b4e a73d
00000300: 4afa 2ebe 60e8 9d3e cee0 8e3e c9be 60be
00000310: 70a1 433d 1c90 19be b03d e93d a4cf c7be
0.052972257 0.039440148 0.1429649 0.025708033 0.07571658 0.30032775 0.3763743 -0.32459906
0.019597428 -0.19159123 -0.13283749 0.08177143 0.227457 -0.39047715 0.15526944 0.04962164
-0.15072428 -0.1914629 0.35663426 0.18089467 -0.07075945 0.09892167 -0.04132101 0.02647429
0.016302245 -0.400448 -0.074040204 0.082610644 -0.1583505 -0.335298 0.35203403 0.027347833
0.11804902 -0.1906009 -0.35590848 -0.4076737 0.08043281 -0.16974454 0.38576248 0.006837015
-0.15963794 0.04746023 0.25593987 -0.27749082 0.13185385 -0.08856554 0.4029085 -0.14661525
-0.28106606 -0.16795093 0.09512206 0.21509124 0.11026481 0.06045526 0.102237776 -0.41646346
0.018287726 0.10279564 -0.5956184 -0.24678169 -0.26137742 0.49580395 0.36787882 -0.06916326
-0.019582879 -0.28187189 0.17976075 -0.21198529 -0.27410197 -0.027493054 0.1832865 -0.0990843
0.76421857 0.15469553 -0.24328259 0.2559588 0.07029423 0.12739801 0.061659697 0.13399324
0.32357624 -0.105154276 0.28143954 -0.2517289 0.57365996 -0.017419305 -0.007893719 -0.07425992
0.3644607 -0.26708677 -0.24082151 -0.08009957 -0.73671365 -0.12959671 -0.09630814 -0.16534999
0.23140515 -0.21928015 -0.11445691 0.22040898 0.023948867 -0.122357994 0.14087151 -0.29951242
0.23759742 0.5174453 0.19190326 0.3950319 -0.27030578 0.21508074 0.06390892 0.014802696
-0.14595143 0.17505848 -0.18199632 0.2985228 0.11774915 -0.24479319 0.4721171 0.116493165
-0.32892916 0.16287352 0.016583256 -0.21036616 0.2400254 -0.29428095 -0.166269 -0.15471943
0.3056965 -0.22326598 -0.05711876 -0.19802058 -0.21101029 0.21468115 0.009454553 -0.092669636
0.05808188 -0.12779543 0.2748984 -0.06304025 0.027952347 -0.19790131 -0.67654616 0.072044306
0.29699287 -0.24089113 0.049058326 0.47427806 -0.28693172 0.37845257 -0.081251286 -0.2824429
0.2026631 0.13119014 -0.11546286 0.22290027 0.38629436 0.20230737 -0.30696708 -0.13582127
-0.23394915 -0.37052128 -0.074866846 -0.46858993 -0.054215197 0.0019019832 -0.32422274 -0.3601366
-0.297431 -0.13797578 0.30187437 0.10894094 0.6617745 -0.13762668 0.1254203 -0.091220826
-0.029919388 -0.5713936 -0.35753593 -0.01751571 0.06363613 0.060908124 0.12470703 -0.32514626
0.4334564 -0.07349532 0.4376513 -0.25382128 0.31469077 -0.1616115 -0.09321463 0.08169254
-0.17087665 0.3084135 0.27905887 -0.21947779 0.04776138 -0.1499638 0.11388719 -0.39025605

weight f4 [200, 200]
00000000: a6ad 8cbe 792d 3f3d 4ad4 803e 5c68 213d
00000010: 409f c9be 6563 a5be 5146 d63e cad4 f63e
00000020: 94d0 eebc a696 84bf 4d91 043f 7b97 f13d
00000030: 1acd 893e 2cf9 813e 03fc b23e d413 64be
00000040: 6cba 103d 1aa2 0a3f efe7 a4bd c304 5b3e
00000050: 81bd c83e a7e6 bdbe f0bc 23bd ff6a 93bc
00000060: c06d 12bc 137d 31be 376c 2ebf dda7 52be
00000070: bcf7 1bbf 55b7 3ebf 77f5 643f 8e58 19bf
00000080: b37b 303e 092c c7bd 8ffe 02bd 1e92 18be
00000090: 02a1 6cbc 64c8 5d3e 0bbd 903e 9cb3 29bf
000000a0: 271d 663e cb28 b7bd e2b7 1fbf 4965 ac3e
000000b0: 0cdc c13a 483d c0be 22a7 e33d 4c71 ffbe
000000c0: 9bc6 55bf bc44 ec3d 8258 a6bd 2128 4cbe
000000d0: d628 9cbe 1dbd 073f cf3b 29bf 16cc 9cbd
000000e0: 9af1 d03e 70db 7dbe 81fe 0f3e ae18 35be
000000f0: 338a 403e b712 7c3e 5f69 dbbe 14a6 b63e
00000100: 515f e33d 899a 123f 01b5 023f 5d9e 003f
00000110: 8835 a6bd eb36 fabe e869 1bbf f92f dcbe
00000120: a39f 633e 8ae6 643e 9343 8dbc f90e 69be
00000130: 8ffc f8bc 7147 03bf 5143 983d eeed 70be
00000140: 49bf f73e b7fa ce3e afd7 f63e 17e8 b73e
00000150: 9a3f 4f3e f314 3bbe 0fcc 27bf cee1 e6be
00000160: 90c7 4e3e 434d 793e 882f d13e 565d 16bd
00000170: 2dac bfbe c8d1 4ebe f4a9 01bf b7ec 28bf
00000180: 88f8 c43e 1229 3ebf 8e4e e93d b86d ef3e
00000190: ed12 6d3f 2ae2 233f b3b0 43be 3fed 0cbf
000001a0: bc5e cdbd a095 223e 5a8a bf3c c301 e3bd
000001b0: 26d8 823d e4b9 2abf 217f a93e d226 bebd
000001c0: 1a5c 8c3c 1db0 f4bd 5c7c 093e 4c42 4ebf
000001d0: c00b 3c3d dd31 bd3e e7fc 0dbe ca49 0d3e
000001e0: 67cb c4be 165f 163e 9e08 093f 61f4 dabd
000001f0: 6cde a43e 810a b93e fe3a 99bf 3496 66be
00000200: bb3e 063f b888 7dbf 8c58 393e 0c06 9a3d
00000210: f07f cfbd 515e 34bc 049a 2fbe daf8 bf3d
00000220: a9aa 1dbe 2747 153f 4018 503e 57b3 23bd
00000230: c8b2 03bf c2a1 a83d 84d7 d6be 53bf eabd
00000240: aa7b 0dbd 38bb 073e 9528 9d3c 4569 c9be
00000250: 3e9f 233e 54cc d0bd a2ad 08bf 683f 72be
00000260: c947 22be a22b d5be d05e a4bb 3e20 19be
00000270: 724d 1c3f c2c5 783e c098 85bd a7ef 5dbe
00000280: ace9 40be 5ed0 4dbe a39a 363d 5492 0d3e
00000290: 4f3d 0abe e64e 16bd 2a9e 19bf 6c2d 5abe
000002a0: 0878 0b3e 006e 45be 2fef f63e c9c9 163f
000002b0: ed2f 853e c44a 18bd fd6d c3be 75c0 373e
000002c0: 66bc b2be 902d 1cbd 6b1d 07bf 2dc3 793e
000002d0: c7d0 8d3c dd87 a63d eb5d 63bd 7e17 e23d
000002e0: 105a a9bc 2ad6 16be 63f9 88be 626f 593d
000002f0: a702 203f b4fc 033e 6d59 bebd 2dcf d0be
00000300: 10fa d3bd cc7f 47be 7840 ac3e 802d e1bc
00000310: 7b6e 7a3e fe38 f3bd 496e ca3d 4418 d6be
00000320: 7b90 283f 369b 583e 3d08 bebe bfac d03c
00000330: c60d 453f a051 c739 33cb 743d b9bb 1fbe
00000340: 6e55 bf3e 1a74 86bd 901d 423e 364b 523e
00000350: 938d 80be d700 853d f4b6 15be 3e5b ca3d
00000360: 0f43 293e 9d21 e83d c300 283e ec23 e9be
00000370: 963e 71be e5e0 85be 2900 e13e 8ed2 1b3f
00000380: 5306 83be 8c87 b2be 63c7 9f3d 964a b4be
00000390: 56a3 533f 39d7 06bd a212 b7be 0d6b e23e
000003a0: b458 233f 7bb5 4d3f 5e41 05bf aca7 12be
000003b0: f61d 9fbe 8bc7 cdbd dcf4 0e3e 65c9 8b3c
000003c0: 2986 593e 3b7f 373e 0453 1abe 0127 6b3e
000003d0: a9b4 193f b314 fcbd 8858 d13e 6412 d7bd
000003e0: f309 d53e f7c3 36bf f377 9abe 685e 503e
000003f0: 9778 4dbd a5ce ebbe fc99 523e a5e9 b43e
-0.27476233 0.046674225 0.25161964 0.039406165 -0.3937931 -0.32302395 0.41850522 0.4820922
-0.029152192 -1.0358474 0.5178421 0.11796471 0.26914293 0.25385416 0.34957895 -0.22273189
0.035334036 0.541536 -0.0805205 0.21388535 0.3920708 -0.37090036 -0.039975107 -0.017995356
-0.008937299 -0.17332868 -0.6813387 -0.20571847 -0.6092489 -0.7449849 0.8943705 -0.5990075
0.17234688 -0.09725196 -0.031981047 -0.1489949 -0.014442684 0.21658474 0.28269228 -0.6628969
0.22472058 -0.089433275 -0.6238996 0.33671024 0.001479031 -0.37546754 0.111158624 -0.49891126
-0.8350617 0.115365475 -0.0812235 -0.19937183 -0.30499905 0.5302294 -0.66106886 -0.07656114
0.40809327 -0.2479074 0.1406193 -0.17685196 0.18802719 0.24616514 -0.4285383 0.35673583
0.111021645 0.5726705 0.5105744 0.50241643 -0.08115679 -0.48870024 -0.60708475 -0.4300535
0.22228865 0.22353569 -0.017244136 -0.22759618 -0.030393867 -0.51280886 0.074347146 -0.23528263
0.48388126 0.40425655 0.4821143 0.35919258 0.20239106 -0.1826971 -0.65545744 -0.4509415
0.20193315 0.2434588 0.40856576 -0.036710106 -0.37436047 -0.20197213 -0.5064995 -0.659862
0.38470864 -0.7428142 0.11391936 0.46763396 0.92607003 0.64016974 -0.19110374 -0.5504951
-0.10027835 0.1587739 0.0233814 -0.110843204 0.06388883 -0.66689897 0.33104804 -0.09284748
0.017133761 -0.119476534 0.13426346 -0.8056991 0.045909643 0.36952105 -0.13866006 0.1379768
-0.38436434 0.1468471 0.53528774 -0.10691143 0.32200944 0.36140826 -1.1971128 -0.22518235
0.5243947 -0.9903674 0.18100184 0.075206846 -0.10131824 -0.011008815 -0.17148596 0.093736365
-0.15397133 0.58311695 0.2032175 -0.039965954 -0.51444674 0.08233978 -0.419613 -0.114622734
-0.034541763 0.13255012 0.01918439 -0.39338127 0.15978715 -0.101952225 -0.5338994 -0.23657
-0.15847696 -0.41634852 -0.0050161853 -0.14953706 0.6105567 0.24294189 -0.065232754 -0.21673451
-0.18839139 -0.20099017 0.044581067 0.13825351 -0.1349995 -0.036696337 -0.60006964 -0.2130639
0.13620007 -0.19280243 0.48229358 0.5890165 0.26013127 -0.037180677 -0.38169852 0.1794451
-0.34909362 -0.03812939 -0.52779263 0.2439086 0.017311467 0.081313826 -0.05550949 0.11039637
-0.020672828 -0.14730135 -0.26752767 0.05308474 0.6250405 0.12889367 -0.092944 -0.40783063
-0.1035043 -0.19482344 0.33642936 -0.027487516 0.24456207 -0.11876105 0.098843165 -0.41815388
0.6584546 0.21152958 -0.3711566 0.025472997 0.7697414 0.00038017053 0.0597641 -0.15598954
0.37369865 -0.06565113 0.1895659 0.20536503 -0.25108013 0.06494301 -0.14620572 0.09880684
0.16529487 0.11334536 0.1640654 -0.4553522 -0.23559031 -0.26148143 0.43945435 0.60868156
-0.25590762 -0.3486904 0.07801702 -0.35213155 0.82671106 -0.032920096 -0.35756403 0.44222298
0.63807225 0.8035504 -0.5205287 -0.14321774 -0.31077546 -0.100478254 0.13960594 0.017063806
0.21242584 0.17919628 -0.1507073 0.22964098 0.6004129 -0.123086356 0.40887856 -0.105015546
0.41609153 -0.7139277 -0.3016964 0.20348513 -0.05016383 -0.46056095 0.20566553 0.35334507

bias f4 [200]
00000000: 5d01 ca3e de0f 953e e150 69bd 2b74 a73e
00000010: 05d6 12be ecee 7b3e 72f7 c73e 035c 383f
00000020: 0a89 2a3e 1b7b 2e3e 28d8 fdbe 1904 923e
00000030: 38a8 ec3e 87fc 173e 48fc 0ebd b9a3 0ebf
00000040: 7370 6dbd cf74 a93d 0a27 ab3e 2941 523e
00000050: 8672 a2be a0f0 263f e1c4 8abe 49d4 f2bc
00000060: fb97 0b3d 830e 073f e9da 0e3e c320 8c3e
00000070: af7b 32bf 5ce7 893e 8496 eb3e 34f2 86bd
00000080: 6e4f 853e ff2e ddbe 83af 1e3e 68b6 923e
00000090: 9bf6 b1bd 0f6c ff3d 02ae 8bbe 0f7b bdbd
000000a0: 37df 9dbb 6f21 593d bb86 b3be 9b7b a6be
000000b0: af89 11bf 563d 80be 36f4 263f b934 493e
000000c0: 2793 94be 1988 c7be 2746 68be 1f87 08bd
000000d0: 7cdd 80be 2440 a3be 7650 1d3f ccb5 9c3d
000000e0: 1713 8a3c a9cb aa3d 7d74 85bd 45c5 89be
000000f0: d45a f63d 153b b6be 8552 aebc f744 be3e
00000100: 1b0d a53e 8527 c3bd 425f ef3e bd8d 33be
00000110: 1791 71bd b552 2bbf 3559 563e d114 a6bc
00000120: 6e1e 293f b281 93be 4953 f9be c57e e7be
00000130: ea29 16be 5d70 a13e a971 903e e151 0abf
00000140: 19ce af3e d28a 903e 7fb0 393f fddb 17bf
00000150: 7b8d 163f 8f3f c6be 3d86 7fbd 94d2 9e3c
00000160: 126f 963e d0a2 b53b c474 f93d a651 0fbf
00000170: e608 55be 1280 1b3e 1758 1ebe 6574 9e3e
00000180: b277 983e bcc8 00bf 308d 043f fdf4 96bd
00000190: 36f1 b53e 52a8 5c3e 3f8e 61be 1342 30bd
000001a0: 560c cb3e 1a3e bcbe d452 a33e b7eb a73e
000001b0: c389 a23e f20b 5d3e 7df9 883d b644 24bd
000001c0: d5c9 943e fe73 83be bc25 783c 29ec a4be
000001d0: 99bc 88be f09e b7bd e2bf 2f3f 9c58 8ebe
000001e0: 2f7e 3bbe ac1f 3cbf a147 6b3e 1df9 f8be
000001f0: 6426 953c 6d6e ac3e 0d9f 953b 3916 b7be
00000200: b84c 1ebf 2760 45bf 59c1 a73e 5e02 d23e
00000210: 1c75 7cbe c49a ff3e e50b 4ebb 6847 0b3f
00000220: 43f4 e83d 9228 a33d 01af b33d d75f 863e
00000230: 9035 e0be a780 083f 0cb8 3b3e 3bdd 2fbe
00000240: 341b a9be 2593 173f c3a3 d3bd 1499 7a3e
00000250: 02dd 0dbf 218e b83e 9d14 d1be 6037 813c
00000260: 245f 00bf 4450 f93e 7b75 e9bc 6367 153f
00000270: b8b3 e93e a1ea 15be e451 ddbe fe20 f5be
00000280: d26b 063f 6e93 7b3d b76c 543e b429 443f
00000290: 7e97 babe 0a57 043f 5263 143f 692b 9a3d
000002a0: f14e 753e c8a4 bbbe ae2b 5a3e 5090 003a
000002b0: 6c90 babe 7aac bbbe 17a3 f2bd 950a 2f3e
000002c0: 45fc a1be a747 863e 39c5 88be c935 cf3d
000002d0: ef63 18be 0a36 573e 441c 033e 56ac 5b3d
000002e0: 75a7 9ebe 41e1 adbe 7db6 9bbe d9c8 f03e
000002f0: afa7 d4be fcbc eebe 8c7c b73e 8ca9 1abe
00000300: 13b7 fbbe 34bd 9abe 91c4 6ebe dde9 cb3e
00000310: eb76 7c3e 6f06 203f 1df2 063e 395c d33e
0.39454165 0.29113668 -0.056961898 0.32705817 -0.14339454 0.2460286 0.39055973 0.720154
0.16653839 0.17039149 -0.49578977 0.2851875 0.4622209 0.14842425 -0.034908563 -0.5571857
-0.057968568 0.082742326 0.33428222 0.20532669 -0.31728 0.65210915 -0.27103332 -0.029642241
0.034080487 0.5275652 0.13950695 0.27368745 -0.69719976 0.26934326 0.46013272 -0.06589165
0.26037163 -0.43199918 0.1549664 0.2865479 -0.086896144 0.124717824 -0.27281195 -0.09251987
-0.004817869 0.0530104 -0.3506373 -0.32516178 -0.56850713 -0.25046796 0.65216386 0.19649018
-0.29018518 -0.38971022 -0.22683011 -0.033331987 -0.2516898 -0.31884873 0.614509 0.076518625
0.016854806 0.08339626 -0.06516359 -0.26908317 0.12029043 -0.3559195 -0.021279583 0.3716199
0.3223656 -0.09529022 0.46752363 -0.17534538 -0.05897626 -0.66923076 0.20932467 -0.020273598
0.66062057 -0.28809887 -0.48696354 -0.45213905 -0.14664426 0.3153104 0.28211716 -0.5403119
0.34336928 0.28230911 0.72534937 -0.5932005 0.5880963 -0.38720366 -0.06238388 0.01938752
0.29381615 0.0055430904 0.121804744 -0.5598396 -0.20804176 0.15185574 -0.15463291 0.30948177
0.2977882 -0.50306296 0.51777935 -0.073709466 0.35535592 0.21548584 -0.22026919 -0.043031763
0.3965785 -0.3676613 0.3189913 0.32797024 0.3174573 0.21586588 0.06688211 -0.04010459
0.29060236 -0.25674433 0.015145715 -0.32211426 -0.2670639 -0.08965862 0.68652165 -0.2780198
-0.18309854 -0.7348583 0.22976543 -0.48627558 0.018206783 0.33677998 0.0045660795 -0.35759142
-0.61835814 -0.7709984 0.327647 0.4101743 -0.24654049 0.49922764 -0.0031440195 0.5440583
0.11374714 0.079667225 0.08773614 0.26244995 -0.43790865 0.5332131 0.18331927 -0.17174236
-0.33028567 0.592089 -0.103339694 0.24472457 -0.55415356 0.36045936 -0.4083604 0.015773475
-0.50145173 0.4869405 -0.028498402 0.5836088 0.45644927 -0.14640285 -0.4322654 -0.47876734
0.5250827 0.061419897 0.20744596 0.76626134 -0.36443704 0.5169531 0.5796405 0.07527811
0.23955895 -0.36649156 0.21305725 0.0004904317 -0.3643831 -0.36655027 -0.11847513 0.1709388
-0.3163778 0.2622654 -0.2671297 0.101176806 -0.14881872 0.21016708 0.12803751 0.05363115
-0.30987135 -0.33960918 -0.30412665 0.47028235 -0.41534182 -0.4662856 0.3583721 -0.1510374
-0.49163112 -0.30222476 -0.23317172 0.3982686 0.24654739 0.62509817 0.13178296 0.41281298

weight f4 [10, 200]
00000000: f6c6 2e3e 75e8 773e ca8d e7be baa5 043f
00000010: cf87 c2be 730a 91be 974c 403e 4c8e 8dbe
00000020: b4d5 aa3e 6b9c 663c b9a9 c9be c821 abbc
00000030: 6d53 7fbd 8bce c1be 38fa 41bf c686 8fbe
00000040: 3465 82be 716f 1ebd 5451 073f a9b9 383f
00000050: 85fb e4be ec98 843d d737 47bf 37f9 3bbe
00000060: 5114 e83d cb91 e4be aedc babe d2a9 923e
00000070: e40b bfbe 7bb6 57bd 7943 5dbf ba3b e03e
00000080: f719 80be be41 bebe fb48 163f ff57 d2be
00000090: 5911 b93e 6019 33bf a84b de3e eb3e babe
000000a0: a3a0 87be ce00 0b3f 9b16 dbbe a3a4 86bd
000000b0: b148 c5be d092 303d e814 4dbd 8d39 133e
000000c0: c220 05bf 79f3 863e dafe c13d 6997 babe
000000d0: 6045 a93e 9630 e8be ccf7 8c3e ef4d 2e3e
000000e0: bc1d a13e f688 bebd d7fe c23e 28fa 27be
000000f0: 4994 99be 999a 7f3d 7082 e2be 4fa6 06be
00000100: 0190 0d3f 81b4 1dbe a32b c8be dd5c 9c3e
00000110: 816c 0dbf 5782 e23e e0c4 28be e853 2fbf
00000120: 4a3f b63d 60a1 f1be 1f69 41be 159f e53d
00000130: 795e cfbe 2041 033f 7cea f73d 07e4 a83e
00000140: 02d7 0f3f a42f 933e 480d f5be 786d 963e
00000150: f9b3 aa3e bea3 df3e 71d2 b23e 5945 01be
00000160: f8dd 113e ac96 bfbd 4de0 b13e b4e7 1cbf
00000170: 4e14 06bf f0e9 6bbe 1473 6f3e 509a 0b3e
00000180: cd2a 8abe 401a f63e 3b1b 5cbe 9045 c9be
00000190: 7932 d23e 732d d53e 38c1 1ebf 7f7e e4be
000001a0: 24e4 a1be 8724 7abe e841 e7be c016 0ebf
000001b0: fd1d 06bf 300d 113f 913a 1e3f 761e 8a3e
000001c0: ede1 933e c86c 1a3f e2bb 873e 44a5 67be
000001d0: ba29 383f f14b 20bf d060 66be e6cc 1a3e
000001e0: 0973 a0bc c909 aebe d58a 493c 7ceb 3cbf
000001f0: 760f e5be 0b8a dfbe f8c5 b9be 089c acbe
00000200: 1ef9 ed3e 8c9c afbd 2496 3cbf 6439 acbe
00000210: 28da 1dbf 435a 5ebe 898d d63e 76f5 82be
00000220: c7e1 c63e 52c2 22bf c574 1f3e dc1f e3be
00000230: f1fa f53e 2d3b acbe 2760 c73e 89cc c23e
00000240: 554f cfbe 417c 063f 04d3 c13e dbae 263e
00000250: cc30 f6bd 2990 83bd 03ce f93e 6390 b43e
00000260: 5f49 eebe 2b85 c33e 4e4e a43e 6176 be3d
00000270: d4db f5bd 4550 e33e 80eb bf3e 1052 c43b
00000280: d345 f43e 1430 dd3e 9200 233f e975 5a3c
00000290: 7165 70bd c55e 0d3f 746d 113f f187 91be
000002a0: 3a00 d13e 6b9b 2ebf 7d3b 74bd 61a3 b0bc
000002b0: 7753 c73e 3b0e d7be 7848 153f 2b55 3fbd
000002c0: 4d06 23bf 3fbd 0a3e 59bb 77be 9b7a 913c
000002d0: b6a5 7cbe fcfb f2be 0f41 02be c422 d2be
000002e0: e413 bcbe d22d 763d 1b6f d43e fe58 32bf
000002f0: d075 17bf c6de 4cbe a4da e13e a96e 3cbe
00000300: 1b2f 03bf 0db6 903e 888e 7c3e 0b68 1f3f
00000310: 3867 943e f57d f23e 7f0d 03bf 1eed c8bd
00000320: 3989 ffbe d928 b0be a8a8 123f 4bc4 cc3e
00000330: 188e b6bc 4f7f 8fbe 516e 6bbe ba0e 12be
00000340: ba23 f0be 286a 56bd ba06 343c bd34 d7be
00000350: 9727 dc3e 1004 ed3d 58ab a7be c096 493e
00000360: 1459 1bbf ecc0 5ebe d805 54be 5167 82be
00000370: f529 cb3e 9faa b4be 28be c33e 4f82 8d3e
00000380: 4947 39bf b1ce 1cbf db5b cdbd 69bb 33be
00000390: 8833 89bd 7380 32bf 43b0 493e d12e 5bbe
000003a0: 205d 133f 00b9 80bd 58fd d8bd 5014 903e
000003b0: d026 09bc 330d b0bd 0284 763e be9c b43e
000003c0: daa9 963e 3a05 f23e 8077 143f 94b6 c93d
000003d0: 1565 b8be 907f ba3e 1f25 2abf 59f4 9dbb
000003e0: 9e6e 82bd c156 00bf ee2a 153e b140 5ebc
000003f0: 4922 f43b 4372 62be 9298 74be e97d 773e
0.17068085 0.24209769 -0.45225364 0.5181538 -0.3799424 -0.28328285 0.18779217 -0.27647626
0.33366168 0.014075379 -0.393873 -0.020890132 -0.06233542 -0.37852892 -0.7577243 -0.2803251
-0.25467837 -0.038680498 0.5285847 0.72158295 -0.44723144 0.0647448 -0.7781958 -0.18356787
0.11332 -0.4464248 -0.3649649 0.28645188 -0.3731376 -0.05266426 -0.8643108 0.43795568
-0.2501981 -0.37159532 0.5870511 -0.4108276 0.36146048 -0.69960594 0.43417096 -0.36376128
-0.26489744 0.542981 -0.42790684 -0.06574371 -0.38532022 0.04310876 -0.050068766 0.14377423
-0.5200311 0.2635763 0.09472437 -0.36443642 0.3306074 -0.45349568 0.27532804 0.17021917
0.31467998 -0.09303467 0.38085052 -0.16404021 -0.29995945 0.062403295 -0.4424014 -0.13149379
0.5529786 -0.15400888 -0.39095792 0.305396 -0.5524369 0.44240066 -0.16481352 -0.68487406
0.0889879 -0.47193432 -0.18887757 0.11211983 -0.40501764 0.5127125 0.12105271 0.3298647
0.5618745 0.28747284 -0.47861695 0.29380393 0.33340433 0.43679613 0.3492618 -0.1262411
0.1424483 -0.0935491 0.3474144 -0.6129105 -0.5237473 -0.23038459 0.23383743 0.13633084
-0.2698578 0.48066902 -0.21494763 -0.39310884 0.41054133 0.41636238 -0.6201358 -0.4462776
-0.3161937 -0.24427997 -0.4516747 -0.55503464 -0.5238951 0.5666075 0.61808115 0.26976365
0.28883305 0.60322237 0.2651053 -0.22621638 0.7193867 -0.6261588 -0.22497869 0.15117225
-0.019586103 -0.3399184 0.012301167 -0.7379682 -0.44738358 -0.43660006 -0.3628385 -0.33712792
0.46479124 -0.08574781 -0.73666596 -0.33637536 -0.61661005 -0.2171412 0.41904858 -0.25577897
0.3884413 -0.6357776 0.15571888 -0.44360244 0.48043016 -0.33638898 0.38940546 0.38046673
-0.40490213 0.52533346 0.37856305 0.1627764 -0.12021026 -0.06423981 0.48789987 0.35266408
-0.46540353 0.38187537 0.32090992 0.09299923 -0.120048195 0.44397178 0.3748436 0.005991228
0.47709522 0.43200743 0.63672745 0.013333776 -0.058690492 0.5522273 0.5680764 -0.28424028
0.40820485 -0.682059 -0.059627045 -0.02156228 0.38930866 -0.42003044 0.58313704 -0.046712082
-0.6368149 0.13548754 -0.24192561 0.017758658 -0.24672589 -0.47457874 -0.1272013 -0.4104215
-0.36733925 0.06010229 0.41491017 -0.6966704 -0.5916414 -0.20006856 0.44112122 -0.18401588
-0.5124375 0.28263894 0.24663746 0.6226813 0.28985 0.47361723 -0.5119247 -0.098108515
-0.4990938 -0.34406164 0.572886 0.3999351 -0.022284552 -0.28026816 -0.22991301 -0.1426343
-0.46902257 -0.052347332 0.010987932 -0.42032424 0.42998955 0.115730405 -0.32747912 0.19686413
-0.606828 -0.21753281 -0.20705354 -0.2546945 0.39680448 -0.35286424 0.38231015 0.2763848
-0.723744 -0.61252886 -0.10027286 -0.1755196 -0.06699282 -0.6972725 0.19696145 -0.21404578
0.5756397 -0.06285286 -0.105951965 0.28140497 -0.00837107 -0.085962676 0.24073794 0.35275835
0.2942646 0.47269613 0.5799484 0.09849277 -0.3601462 0.36425447 -0.6646289 -0.0048203883
-0.06368755 -0.50132376 0.14567158 -0.013565228 0.007450376 -0.221139 -0.23886326 0.24169125

bias f4 [10]
00000000: d4ce 21be da7b 4bbb ed5b d2bc 4b71 ecbd
00000010: bfbb d03c 4961 1dbd e544 503d 83bc 10bb
00000020: e8d7 cbbb 6652 1b3e
-0.15801555 -0.0031049163 -0.0256786 -0.115450464 0.02548015 -0.038422856 0.050846953 -0.0022085018
-0.0062208064 0.15168151
